fashion-feedforward.pth (torch, 56031 bytes, 6 tensors)

linear1.weight f4 [16, 784]
000000 26 d4 a4 bc 17 d5 0a 3d ca 93 00 3d c4 3a 93 3c
       -0.020120692 0.033894625 0.031390943 0.017972358
000010 31 2f 7b 3c eb 05 35 bc 5e e0 00 3d 47 7f fe bc
       0.0153310755 -0.011048774 0.031463973 -0.03106655
000020 8a dc 30 bd fd 1a 4b bd bb 3c 72 bd 05 54 c5 bd
       -0.043179072 -0.049586285 -0.05913995 -0.09635166
000030 39 05 6f bd a5 6f 9e bd a2 a7 f5 bd 9e 25 ce bd
       -0.05835459 -0.07736138 -0.11994864 -0.10065769
000040 86 17 08 be 8f 65 d5 bd 93 1f 0f 3c 84 c4 00 bc
       -0.13290223 -0.104197614 0.008735555 -0.007859353
000050 03 59 2e 3c d9 af b2 3c ea a6 77 3d 68 7a 94 bc
       0.010641339 0.021812366 0.060461916 -0.018124774
000060 b2 46 0d 3d e7 9b d7 bc 82 72 03 bd 75 4e 08 bd
       0.03449125 -0.026319457 -0.032091625 -0.033277947
000070 e3 ee 83 3c a7 0a 9b 3c 59 3d 13 bd 22 bf e3 bc
       0.016105121 0.018925978 -0.035947178 -0.0278011
000080 81 e7 95 3c 84 79 ce bc fb 7d 1b bd 5a 82 f5 bc
       0.018298866 -0.025204428 -0.03796194 -0.029969383
000090 46 16 1c bc 25 a5 7b bd df 04 06 be bf 84 1f be
       -0.009526795 -0.06143679 -0.13087796 -0.15577982
0000a0 f7 3a 29 be 82 73 24 be 7a 1e 5b be 94 a4 42 be
       -0.165264 -0.16059688 -0.21398345 -0.19008094
0000b0 31 95 3f be 93 31 05 be 01 4a 40 bd 60 32 55 3c
       -0.18709256 -0.13007192 -0.046945576 0.013012499
0000c0 9b a6 90 3d c5 3a 0a 3e dc e6 11 3e 68 c6 c1 3d
       0.070630275 0.13498981 0.14248222 0.09461671
0000d0 e4 74 94 3b 78 a6 0e bc 2f 94 4c 3c c8 81 a2 39
       0.004530536 -0.008706681 0.012486502 0.00030995742
0000e0 b8 c0 b1 bc 00 e7 b8 bb 32 22 53 3b 82 8d ce 3b
       -0.02169834 -0.0056427717 0.0032216427 0.00630349
0000f0 c5 3d a1 bb f6 e0 4f bd 32 98 1b bd 53 ab 48 bd
       -0.0049206936 -0.05075165 -0.03798694 -0.048991513
000100 91 69 37 bd b3 ab b4 bd 72 fc 1d be 98 23 d5 bd
       -0.04477841 -0.088218115 -0.15428331 -0.104071796
000110 fd 51 bb bd d4 99 20 be 06 36 05 be 3f 87 00 be
       -0.091464974 -0.15683681 -0.1300889 -0.12551592
000120 9b 8c db bd ef ef c0 bd 96 da 0e bd 80 c5 25 3d
       -0.10720178 -0.09420764 -0.03487643 0.040471554
000130 ca 79 09 3e 29 b4 3e 3e 23 db 3a 3e e4 f3 57 3e
       0.13425365 0.18623413 0.18247657 0.2108913
000140 9d ee 4b 3d 62 d6 2a bc 81 96 4b 3c 76 ea 72 bc
       0.049788106 -0.010427089 0.01242602 -0.014826408
000150 53 cc e4 3c 2e 58 70 bc 28 76 4b 3c fb 07 8a 3b
       0.02792946 -0.014669461 0.012418307 0.004212377
000160 55 ef 84 bb 28 29 cc bb 9c 4e 36 bd b6 6b b5 bd
       -0.004056851 -0.006230492 -0.04450856 -0.08858435
000170 94 22 cf bd ce 27 f8 bd 71 d0 cd bd 1b c8 d8 bd
       -0.10114017 -0.12116967 -0.10049523 -0.10585042
000180 40 c3 0d bd a6 ef 8c bd 78 4d 9f bd b1 ae 79 bd
       -0.034610033 -0.06881647 -0.07778448 -0.060957614
000190 b0 29 de bc a4 cc 02 bd 35 f7 1e bd d4 3e 3f 3b
       -0.027119488 -0.03193344 -0.038809974 0.0029181736
0001a0 e3 f6 e7 3d 43 2a 35 3e c4 d5 42 3e 90 c7 4c 3e
       0.11326387 0.17691903 0.19026858 0.19998002
0001b0 bc 04 b5 3d 09 2d 72 bc f2 71 a3 ba a7 69 05 3d
       0.08838794 -0.014781245 -0.0012469871 0.03257146
0001c0 44 99 a5 3c 00 21 85 bc b3 df e4 bb 09 04 29 bd
       0.020214684 -0.016251087 -0.006984675 -0.041263614
0001d0 d1 21 5e bd fb f5 a3 bd 4e e9 e0 bd 5a 9a 17 be
       -0.05423147 -0.080059014 -0.10981999 -0.14804974
0001e0 34 a6 99 bd a1 fc ea bd a8 67 a5 bd ba fc ec bd
       -0.07502404 -0.114739664 -0.080764115 -0.11571641
0001f0 d5 89 ea bd d0 19 c3 bd 01 6e 3f bd 82 77 d7 3c
       -0.114520706 -0.09526408 -0.046735767 0.026302103
000200 42 d2 a0 bd 82 8f 8c bd 34 89 c0 bc 07 72 1d bd
       -0.078526035 -0.068633094 -0.023502924 -0.038438823
000210 6d 21 14 3a 01 e5 6c 3d 12 06 2c 3e f8 6a 0a 3e
       0.0005650733 0.057835583 0.1679919 0.13517368
000220 e9 ee b5 3c 96 4c be 3c 88 e1 c7 3c c2 05 05 bd
       0.022208648 0.023229878 0.024399534 -0.032476194
000230 5b 2f 9f bc 46 bb d1 bc bf 4e 4c 3c 44 be 30 bd
       -0.01943176 -0.025601994 0.012469946 -0.0431502
000240 01 de 19 bd af 93 ee bd 09 e6 23 be f5 2f e3 bd
       -0.037565235 -0.11649262 -0.1600572 -0.110931315
000250 63 9c da bd 81 c4 a6 bd eb 7b e0 bd c2 5c dc bd
       -0.1067436 -0.08142949 -0.109611355 -0.1075988
000260 27 21 10 be 5d 57 83 bd 53 f0 da bd be 2b f1 bc
       -0.14075147 -0.064131476 -0.106903695 -0.029439803
000270 89 76 06 bd d0 bd 0f bd bb b4 97 bd 9a 8e 64 bd
       -0.032827888 -0.03509313 -0.074075185 -0.055800058
000280 7f af a0 3d 8d 96 9c 3d 17 e9 16 3e 29 1d e1 3d
       0.07845973 0.07645903 0.14737354 0.1099189
000290 af bf b7 3c e2 e8 95 3d 7c ba 26 3d 49 96 76 bd
       0.022430269 0.073198095 0.04070519 -0.060201917
0002a0 6c 4d 53 3c de f8 4b bd 53 66 93 bc e1 21 2f bd
       0.012896877 -0.049797885 -0.017993128 -0.04275692
0002b0 4f 1c 6e bd 0a 70 09 be d9 df 14 be 8a 39 f9 bd
       -0.058132466 -0.13421646 -0.14538516 -0.12169178
0002c0 9c af fb bd a1 e4 e7 bd 9a f1 03 be 5f 24 02 be
       -0.12289354 -0.113229044 -0.12885132 -0.12709187
0002d0 ee 82 f4 bd 39 16 ae bd bb 94 6a bc 80 58 b7 3d
       -0.11939035 -0.085003324 -0.014317687 0.08952427
0002e0 73 7b 2f bc 4d 02 a4 bd ec b2 93 bd 89 73 0e 3d
       -0.010710585 -0.08008251 -0.07211861 0.03477815
0002f0 cf ff c1 3d 98 36 bd 3d d3 7c cb 3d 55 e9 08 3e
       0.0947262 0.092389286 0.09935918 0.13370259
000300 e2 1d 1d 3e bf 03 92 3d 09 56 6f bd 6f 02 52 bc
       0.1534343 0.07129621 -0.05843166 -0.012817963
000310 8e 61 03 bd d6 de af bc a4 c3 88 bc 3a 75 42 bd
       -0.032075457 -0.021468561 -0.016694851 -0.047475077
000320 20 39 a6 bd 45 5f 42 be ff 84 24 be 8f 96 04 be
       -0.081163645 -0.18981655 -0.16066359 -0.12948059
000330 47 fd 35 be 58 62 17 be 5e ab b9 bd fc 4d d7 bd
       -0.17772399 -0.14783609 -0.09065889 -0.10512921
000340 dc 3c 87 bd 6a 4f a7 3d 6f ec 3c 3e 7b 65 ff 3d
       -0.06603405 0.08169444 0.18449567 0.12470528
000350 88 96 1b 3e 8d ef 70 3d 80 a5 a9 bd ca df 26 be
       0.15194142 0.058822203 -0.0828352 -0.16296306
000360 bd 2e b8 bd 83 f0 69 3d 6a 9a c4 3b a3 2f cb 3d
       -0.089932896 0.057114135 0.005999853 0.09921195
000370 f1 d5 ec 3d bc ff 84 bd 66 33 77 bc b8 f6 0f 3d
       0.115642436 -0.0649409 -0.015087938 0.0351474
000380 2f bf f4 bc f0 12 21 bd 53 d6 ca bb 19 5f c6 bd
       -0.02987632 -0.0393247 -0.0061901 -0.09686107
000390 ef 0c 14 be 9e dd 40 be dc 10 17 be ed 74 44 be
       -0.14458059 -0.1883454 -0.14752525 -0.19185229
0003a0 06 1c 32 be 4a 9c 51 be 90 29 00 be 99 31 84 bd
       -0.17393503 -0.20469776 -0.12515855 -0.064547725
0003b0 13 6e 3a 3d 53 21 37 3e e5 7d 84 3e ce 27 9b 3e
       0.04551513 0.17883806 0.258773 0.30303806
0003c0 d7 c4 44 3e 72 47 48 3e ea 79 99 3d 86 34 75 3b
       0.19215713 0.19558504 0.074939564 0.003741534
0003d0 56 f1 2b bc f0 7b 27 3d 13 db 9c 3b 61 26 11 3d
       -0.010494551 0.04088968 0.004786858 0.03543699
0003e0 7a 59 7f bd be 78 a9 bd da a1 0e 3c 27 f2 41 3d
       -0.06234119 -0.08274983 0.008705581 0.047350075
0003f0 5b 19 16 3c 70 ed f4 3b 96 9b 36 bd ae da ad bd
       0.009161319 0.007474594 -0.044581972 -0.084889755

linear1.bias f4 [16]
000000 5d e2 5f 3f c6 9b 62 3e a9 82 ce 3b f4 2c 74 3f
       0.8745478 0.22129735 0.006302197 0.95381093
000010 c4 ed 94 3d 5f 05 9d 3f 24 7a 44 bd 56 5e bc 3f
       0.07271913 1.2267264 -0.047968045 1.4716289
000020 a9 35 28 3f 4b d8 94 3f bd 9e 1e be 74 cf 9f bd
       0.6570688 1.1628507 -0.15490241 -0.078032404
000030 1d 4b 1b 3f 5f 50 96 bc e7 f6 90 bc cf 21 c7 bc
       0.6066149 -0.01834887 -0.017695857 -0.024308113

linear2.weight f4 [32, 16]
000000 b9 10 93 be cd f2 97 be 27 b6 2e bd 0c 57 0c c0
       -0.28723696 -0.2967743 -0.042654183 -2.192813
000010 6c c2 26 be 7a cd 42 be 37 f0 02 be 8c 84 62 bf
       -0.16285104 -0.19023696 -0.12786947 -0.884835
000020 59 8a 44 be 66 4c d0 bd 98 87 da 3e e9 1a 07 3e
       -0.191934 -0.10170822 0.42681575 0.13193859
000030 2d 01 08 be 25 eb 34 bd d4 fc aa bd 9c fa 91 bc
       -0.13281699 -0.044169564 -0.083490044 -0.017819695
000040 9d d1 3e 3f bc f1 89 3e ad b7 0e be 6f 75 77 be
       0.74538594 0.2694224 -0.13937254 -0.24165891
000050 18 45 19 3e c4 61 f8 3d df 9a 17 3e c4 92 fc 3d
       0.14967763 0.12128022 0.14805172 0.12332681
000060 5a b7 a6 bd 46 35 90 3f 42 96 80 3c ec 20 73 3d
       -0.0814044 1.1266258 0.015696649 0.05935757
000070 2a d2 82 bc 12 b3 70 be 06 95 0f 3d 2c ed df 3c
       -0.015969355 -0.2350581 0.03505423 0.027334772
000080 a4 ce a2 be fa 2b ca 3e 5e 74 5f bb 74 98 d9 be
       -0.3179828 0.39486676 -0.003409646 -0.42499125
000090 1b 30 1f be 71 de ad be 71 11 47 3e 55 30 52 3d
       -0.15545695 -0.33958772 0.19440247 0.051315624
0000a0 44 3a 01 3f 28 76 0a be 9a a4 27 3d fa 9d 21 3e
       0.5047953 -0.13521636 0.04092846 0.1578292
0000b0 28 d1 9b be 9c 23 35 bd 14 f8 2e bd 74 a6 15 be
       -0.3043301 -0.044223413 -0.042717054 -0.14614278
0000c0 88 e3 5c 3d ae 98 2e bf ac 1c 2d 3d 75 bf 56 be
       0.05392793 -0.6820172 0.04226367 -0.20971473
0000d0 32 6e 92 be ab 5d 08 3f 05 a8 c9 bb 34 c6 5f 3d
       -0.28599697 0.53267926 -0.0061540627 0.05463238
0000e0 e9 a3 4a 3d 7a 7c 80 be c6 7e bb be c0 2c 85 3c
       0.049472723 -0.25094968 -0.36620158 0.01625669
0000f0 e9 97 a0 3e 6c 7b 29 3e 51 ad b1 bd db bb 9b bd
       0.31365898 0.16550988 -0.086756356 -0.0760419
000100 29 7f ac be c8 98 0a bf 18 ff 6c 3e fb f4 d3 3d
       -0.33690766 -0.54139376 0.23144186 0.10349461
000110 10 4b 8f 3e 83 16 ee bc 82 f4 a3 3d 80 e0 78 3f
       0.27986956 -0.029063469 0.080056205 0.9721756
000120 99 d0 a9 be 38 05 d6 be 3e 1e 0f 3e 8a c2 ab bd
       -0.3316696 -0.41800857 0.1397638 -0.08386715
000130 89 29 41 3e 1b 99 9d bd 44 62 48 be 9b f5 7f bc
       0.188635 -0.07695218 -0.19568735 -0.015622522
000140 84 7c 73 be c4 5d 1c b9 fe 89 5e be df 55 0a bf
       -0.23777968 -0.0001491225 -0.21732327 -0.5403728
000150 cc 6c fa be d3 01 07 3e f3 b5 01 bd f6 39 d6 be
       -0.4891113 0.1318429 -0.03166766 -0.41841096
000160 45 df 64 3d 3e 16 b9 bd 0c 3d ab 3d da 88 09 3e
       0.05587699 -0.090374455 0.08361253 0.13431111
000170 e6 64 c8 3d a7 af 6c 3e b0 4c 70 be b6 45 28 bc
       0.0978487 0.23113881 -0.23466754 -0.010270527
000180 ae e1 8c 3d 7a 5d 62 3f 8f f8 1d be b9 79 a4 bd
       0.068789825 0.88423884 -0.15426849 -0.08031029
000190 17 7d 91 3e c8 61 e0 3d c6 ad 49 bd dd 74 58 3d
       0.28415748 0.1095615 -0.04923799 0.052845825
0001a0 26 13 13 bf 97 f8 30 3e 2d 8a 03 be 46 d0 23 be
       -0.57451093 0.1728233 -0.12845679 -0.15997419
0001b0 95 5f 63 be d6 2f c5 3d ca 38 61 bc ab b4 af bd
       -0.2220443 0.096282646 -0.01374645 -0.085793816
0001c0 c3 29 16 be a6 90 9f be 7f 63 6b 39 86 9f a6 bd
       -0.14664368 -0.31165045 0.00022448412 -0.081358954
0001d0 1c 78 3d 3d d9 36 35 bd 3e d3 ef bd d7 11 ab bb
       0.046257123 -0.04424176 -0.11710213 -0.0052206325
0001e0 cb 0e 15 be 94 75 f9 bd a0 f9 1c bc 27 a6 72 3e
       -0.14556424 -0.121806294 -0.009581 0.23696195
0001f0 58 23 57 bc c2 48 5f be 56 3b 5b 3e c3 04 8a 3d
       -0.013130985 -0.21805099 0.21409354 0.067391895
000200 48 61 be be 0a 98 a3 3e 6e 20 fa 3d ab a1 ba bd
       -0.37183595 0.31951934 0.12213217 -0.09112867
000210 c0 99 1d be f6 d4 0b bf 7a 8a 94 3d bc 35 a3 3e
       -0.15390682 -0.5462183 0.07252975 0.31876934
000220 73 f5 87 3e fe e8 72 be 90 9f 70 be 10 c0 b7 3d
       0.2655445 -0.23721692 -0.23498368 0.0897218
000230 5a be b9 bd 2e 15 7d be 58 be ee bd 60 6c 76 3d
       -0.0906951 -0.2471511 -0.11657399 0.06016195
000240 dc 5e 26 bd ed 7b 21 be a8 bb a9 3b be c8 dd bd
       -0.04061781 -0.1576993 0.005179841 -0.10829304
000250 97 fe e1 3e 8a 7a c9 3c 41 8e 00 3e 63 94 81 be
       0.4413955 0.024594564 0.12554266 -0.25308523
000260 47 87 04 be 48 f9 3b be b5 a0 8b be 7f 0c 77 be
       -0.12942229 -0.18356812 -0.27271047 -0.2412586
000270 54 b7 b4 bd f9 1c 53 3e ea 79 81 bc ec 22 53 be
       -0.088240296 0.20616521 -0.015805203 -0.2061879
000280 74 d3 dd 3e ff 2d 6e 3d b3 dd 78 3e cd a0 cd be
       0.43325388 0.058149334 0.24303322 -0.40161744
000290 57 4d e8 bd dd b6 df 3d e4 b8 1c be c1 a4 25 bf
       -0.113428764 0.1092355 -0.15304905 -0.6470452
0002a0 ef a8 bd be bc c4 e2 3e 51 63 d1 3d ca 67 23 be
       -0.3704295 0.4429072 0.10224021 -0.15957561
0002b0 da 2c d6 3c 04 7a 86 3d e5 fb 4b bd 0d 09 9a bd
       0.026144434 0.065662414 -0.049800772 -0.075212575
0002c0 a1 f7 58 bd c0 86 43 be fa cb 31 bd a8 d8 2e be
       -0.052970532 -0.19094372 -0.043407418 -0.17074835
0002d0 89 46 60 be 81 b8 27 bd 75 c3 82 bd fb 26 35 be
       -0.21901907 -0.04094744 -0.06384937 -0.17690651
0002e0 f7 db 5f 3d d4 ea 88 bd 54 53 72 bd 75 d6 fc 3d
       0.054653134 -0.06685415 -0.0591615 0.12345592
0002f0 04 5f 48 3d b0 3c 60 be 7e 9b da bc 81 e8 eb bd
       0.04891874 -0.2189815 -0.026685473 -0.11518956
000300 0e 1d 68 bc e2 12 58 be 80 e5 8e 3b 10 da e9 bd
       -0.014167083 -0.21100953 0.0043608546 -0.11418545
000310 61 c1 79 be 56 bf 52 bd 58 d6 7b bd 9f 2b 6a be
       -0.24390174 -0.051452003 -0.06148371 -0.22868203
000320 37 2d 26 3c d1 0b 34 bd 33 70 72 be 46 59 b9 3c
       0.010142616 -0.04395658 -0.23675613 0.022625577
000330 2e 7e 4f 3d 00 5d 39 be b5 5c 26 3e 3e 31 68 bc
       0.050657444 -0.18101883 0.16246302 -0.0141718965
000340 65 6f 91 3e df e2 4e be 8e 1c 33 be d0 9c 6b bf
       0.284053 -0.20203732 -0.17491361 -0.9203615
000350 24 a9 ad 3e 25 18 a1 be c0 c4 d5 bc bd 49 62 be
       0.33918107 -0.31463733 -0.026094794 -0.22098441
000360 47 30 17 3f 60 1f cd 3e 95 32 60 be 15 2f 94 3d
       0.5905804 0.40063 -0.21894296 0.07235543
000370 93 20 cf be 6a aa f7 bc 8e 8a e5 3b 83 2e 70 3d
       -0.4045454 -0.030232627 0.0070050424 0.058638107
000380 08 c2 1e be eb 5b 9f bd 57 d0 13 be 72 5f a3 be
       -0.15503705 -0.07781204 -0.14434944 -0.31908756
000390 2d 71 16 3d b6 44 00 3e a3 ca 98 bd 26 07 7f be
       0.036729027 0.12526211 -0.07460525 -0.2490507
0003a0 54 a4 d7 3a 7c 78 9d bd c0 94 84 3b 8c c9 ac 3d
       0.0016452172 -0.07688996 0.0040460527 0.084368795
0003b0 fe ae ff 3c 0e a4 01 3e 64 d5 21 be fe 80 f4 3d
       0.031211372 0.12660238 -0.15804058 0.11938666
0003c0 96 3e 2f 3f ca b5 db be 59 16 26 be 9d 9c f9 be
       0.68454874 -0.42912132 -0.16219462 -0.487523
0003d0 6a 1b 90 3e e2 14 af 3a 95 6b 32 be 3e 4b 9a bd
       0.28145915 0.0013357664 -0.17423852 -0.075338826
0003e0 24 25 64 3c 5c de 76 3e aa 5b e3 bd 85 11 4b be
       0.013924871 0.24108261 -0.11101468 -0.19830902
0003f0 5e 1a 1a 3e f4 67 3c bd 2e 19 c5 bd 1f 36 f9 bd
       0.15049121 -0.045997575 -0.09623943 -0.12168526

linear2.bias f4 [32]
000000 c0 43 26 3f 43 c2 91 ba fc 7d ca be 36 91 ae 3f
       0.6494713 -0.0011120517 -0.39549243 1.3638065
000010 82 b3 96 be 39 01 41 bd 41 a6 3a 3c 40 d9 ce bc
       -0.2943383 -0.047120307 0.011392177 -0.025250077
000020 c8 eb 9c be ac 77 c1 be 3e 88 ca 3d fc 99 90 bd
       -0.30648637 -0.37786615 0.098892674 -0.0706062
000030 a3 77 75 bd f4 2a 95 3f 9a 3b 4d be b6 10 34 40
       -0.059928548 1.1653733 -0.20042267 2.81352
000040 be 10 33 bf 15 c3 e2 bd 2c 28 43 3d 19 c3 88 bd
       -0.6994742 -0.11072365 0.047645733 -0.06677837
000050 84 ca 33 bd 60 4c c3 be 6c 8f 01 bf 8a ae 9b be
       -0.043894306 -0.38144207 -0.5060947 -0.304066
000060 7c 3c 9b bb 5e f0 b4 bc 8e a7 df be fa 2f 9f 3f
       -0.004737435 -0.022087272 -0.43682522 1.2436516
000070 1b 86 3b be fa 12 97 be 26 92 ca 3f 2f c9 ca 3e
       -0.18312876 -0.29506665 1.5825851 0.39606616

linear3.weight f4 [10, 32]
000000 1f 73 5a 3d 5c c1 e5 be a8 f2 b3 bd 26 fb 66 3f
       0.053332444 -0.44874084 -0.087865174 0.9022697
000010 3b 5a 08 be a5 4d 12 3e c9 8a 87 be be 3b a3 3e
       -0.1331567 0.14287432 -0.26473072 0.31881517
000020 55 1a d1 bd db 24 91 be 59 ad fc bd af dd 41 be
       -0.102101006 -0.2834843 -0.12337751 -0.18932222
000030 bc 77 ee 3d 58 55 64 be a3 76 35 3e c9 59 8d be
       0.11643931 -0.22298181 0.17721038 -0.27607563
000040 11 8d 27 3e 62 2a 33 bd 12 a6 56 3e 97 b7 23 be
       0.16362406 -0.04374159 0.20961788 -0.15988003
000050 98 b8 83 3d d7 c2 d8 3d 64 48 8a 3e e1 ac da bc
       0.06431693 0.10584038 0.27008355 -0.026693763
000060 c8 8d 03 bf 96 11 4b 3f 8b 9c 8f be 27 f3 ac be
       -0.51388216 0.7932371 -0.2804912 -0.3377926
000070 13 79 e1 bb 8e 55 e3 3d e5 6d 0a 3e 08 af a2 bc
       -0.0068808882 0.11100303 0.13518484 -0.019858852
000080 9b 22 fc be 9f 8f d0 be 07 7c 37 be 2c b7 30 3d
       -0.49245152 -0.40734574 -0.17918406 0.043143436
000090 df c1 a2 3e 53 ce 1c bf c2 26 67 be 0a e1 87 bf
       0.31788537 -0.61252326 -0.22573379 -1.0615551
0000a0 cc 05 b4 3d d7 8b 44 be 3f b8 ea be a0 88 52 bd
       0.08790168 -0.1919397 -0.45843694 -0.051399827
0000b0 ce 67 32 3e c2 bc dc be a0 61 60 bf 23 14 91 be
       0.17422411 -0.4311276 -0.87648964 -0.28335676
0000c0 5e 04 8a be ed 18 ca bc 21 9d 3d bd e0 07 4c bc
       -0.26956457 -0.024670089 -0.046292428 -0.012453049
0000d0 e7 e3 92 be 4b b7 f8 bc 9b f3 ef be 5d c8 b9 b8
       -0.286895 -0.030360838 -0.46865544 -8.858808e-05
0000e0 ee 33 81 3c e4 ef 1f be 31 b5 19 3f 34 2b 7b 3e
       0.015771832 -0.15618855 0.600421 0.245282
0000f0 85 c1 12 be 2c 44 b5 be d2 d2 fa 3e f7 81 66 be
       -0.14331634 -0.35403574 0.48988968 -0.22510515
000100 c7 81 11 3e dd fe 7e be c4 22 74 3d 88 5e 8d 3e
       0.14209662 -0.2490191 0.059603468 0.27611184
000110 b5 3b 83 3d e8 6c af 3e 23 d7 fc be e9 8f 73 3d
       0.064078726 0.34262776 -0.49382886 0.059463415
000120 32 6c d2 3c ee 8f 08 3d f9 f5 94 3c 0f 3a bc 3e
       0.025686357 0.033340387 0.018183695 0.36763045
000130 8e 5d 7d 3c 50 28 26 bf 71 b8 58 3e 04 af eb be
       0.0154642 -0.6490526 0.21164109 -0.46031964
000140 fb e0 2e 3e 68 3e 1a 3d da 0b ab 3e 8c 08 e9 3d
       0.1707801 0.03765717 0.3340748 0.11378583
000150 ed 4b 32 3e 6e 6d b6 3c ec 33 93 3d ba 13 11 3f
       0.17411776 0.022268977 0.07187638 0.56670725
000160 cf 96 90 3e f9 11 35 3f 3e 27 45 be 8b 77 88 3f
       0.28240058 0.7073055 -0.19253251 1.0661482
000170 8c 34 0b 3e 8b 7b 5f be d1 a0 e3 bb 19 a4 c3 be
       0.13594264 -0.21824472 -0.006946661 -0.38211134
000180 6b 3a e7 3e 60 ac 07 be 01 bb eb bd bc 49 cf 3e
       0.45161757 -0.1324935 -0.115102775 0.40485942
000190 0b b4 13 3f 6a 4c fc 3d 93 a8 c6 be c0 ae cd 3e
       0.576966 0.12319262 -0.38800487 0.40172386
0001a0 d4 68 a4 be 28 7a 5c be f8 5e d7 be 3d 76 95 3e
       -0.32111228 -0.21530974 -0.42064643 0.2919177
0001b0 1d 20 78 3d e4 96 0c bf 54 9e 00 3e ab 2f c1 be
       0.0605775 -0.5491774 0.12560397 -0.3773168
0001c0 5f 73 9f bd ab 8b bd 3c bf b9 32 be 09 8f 7c 3d
       -0.07785677 0.023137888 -0.17453669 0.061659846
0001d0 cc 5c d6 3c e7 db f5 bd a2 4b 44 bd 2f 4e 86 3d
       0.026167296 -0.12004834 -0.04792369 0.06557881
0001e0 0e aa 97 3e 64 d4 68 3d 41 1f 9c be f3 f9 a0 be
       0.2962193 0.056843176 -0.30492595 -0.31440696
0001f0 4f 0a f2 3a ad e2 fc bd ba 53 76 3e 77 93 49 be
       0.0018466207 -0.123479225 0.24055377 -0.1968516
000200 f1 e6 ee 3e 84 63 b1 be 6f f1 84 bd 51 4b 88 bf
       0.4666057 -0.34646237 -0.06491362 -1.0647985
000210 01 f1 b9 3e 2d 95 c3 3d d1 9a 04 bf aa c0 04 3e
       0.36316684 0.095499374 -0.5179873 0.1296412
000220 09 ec c5 bd 6b 39 d9 bd 75 bc b9 3e 3f f0 85 3e
       -0.09664161 -0.10606655 0.36276594 0.26159856
000230 d1 36 16 be fc c3 df be 3c 02 0d 3f f2 8e a5 bf
       -0.14669348 -0.43704212 0.55081534 -1.2934248
000240 25 04 0f 3f d7 28 c7 bd bc 97 e0 3d 12 7a aa bd
       0.558657 -0.097245865 0.10966441 -0.08324064
000250 06 51 02 bd d4 62 8b bd 7d d3 6d 3d bb 4b 7b 3e
       -0.03181555 -0.06805959 0.05806302 0.24540608
000260 7c e9 12 3f 1e 5a b4 3e c4 1d 87 be 3d 81 2e 3f
       0.5738752 0.35225004 -0.26389897 0.6816595
000270 d2 64 3f 3e 6e 1a 9d 3c 8b 0d 8c 3e f2 88 d8 bd
       0.18690804 0.019177642 0.27354082 -0.10572995
000280 ff 5a dc be e6 f5 a0 3f 37 3b f6 be 44 37 40 bf
       -0.43038175 1.2575042 -0.48092052 -0.7508433
000290 82 a6 a8 be 12 6b 81 be a8 40 6e 3f 12 97 69 be
       -0.32939535 -0.25277 0.9306741 -0.22811535
0002a0 06 cc d1 be c6 fc e5 3d 41 ca 1b 3f 99 ac 26 be
       -0.4097597 0.11229853 0.6085549 -0.16276778
0002b0 61 4c 96 bc b0 d8 84 3f 44 e6 95 be f3 97 a5 3f
       -0.018346967 1.0378628 -0.2927724 1.2936996
0002c0 e8 a3 2a be 68 63 fe 3d e9 54 84 3d fb 6e 9b 3d
       -0.16664088 0.12421304 0.06461508 0.07589527
0002d0 6e 09 6c be 10 c6 1d 3d 24 98 41 be f4 b4 fa bd
       -0.23050472 0.038518965 -0.18905693 -0.12241545
0002e0 99 6a 01 bf 5c a7 d3 3e eb 13 e4 3d a6 3b 8c bf
       -0.5055328 0.41338623 0.111366116 -1.0955703
0002f0 cb 2d 71 3e 4f 6a 9d bd e8 b9 b6 bf dd cb 8b bd
       0.23552625 -0.076862924 -1.4275484 -0.06825993
000300 67 66 18 bf 4a 76 cf be 06 0e 63 bb ad 83 23 3f
       -0.59531254 -0.40519935 -0.003464581 0.63872796
000310 28 51 de be 45 7c 1a 3f ff d0 0d bf 97 24 2e 3e
       -0.43421292 0.6034587 -0.5539703 0.17006145
000320 2b 15 96 3c b7 45 4d be ce ef 92 3e c8 83 21 3e
       0.01832064 -0.20046125 0.2869858 0.15772927
000330 0d 95 2a be 13 a0 50 bf 02 4c c3 3e fd 58 4f bf
       -0.16658421 -0.81494254 0.38143927 -0.8099516
000340 44 79 af 3e 18 87 ee 3d 65 a7 14 bd ac 4e 69 3d
       0.34272206 0.11646861 -0.036292452 0.056959793
000350 a7 a4 1c 3e c8 c9 c9 bd b2 b8 47 3e a8 3e d0 3e
       0.15297185 -0.0985294 0.1950405 0.40672803
000360 ee 4a 04 3f 05 33 22 3f 28 98 c0 bb b8 fa e6 3e
       0.51676834 0.633591 -0.0058775134 0.45113158
000370 2c 6a 87 3e ac 5a 0a be 87 d2 b7 3e 6d 29 44 be
       0.2644819 -0.13511151 0.35902807 -0.19156428
000380 09 e2 5a be 60 34 0f 3f 10 c8 b4 3e 92 27 bd be
       -0.21375288 0.5593929 0.35308886 -0.36944252
000390 48 8e 0a bf f1 87 a2 bd b9 47 41 3f e6 30 7f be
       -0.54123354 -0.07936085 0.75500065 -0.24920997
0003a0 38 1b 66 3e 4f bf ae bd 67 18 05 be 5e d6 57 be
       0.2247132 -0.08532583 -0.1299759 -0.21077868
0003b0 b9 e9 12 3e 3c 82 8f 3f 47 0d 39 be 80 86 5b 3f
       0.1434697 1.1211619 -0.18071471 0.85752106
0003c0 95 fe a5 be d9 da b9 bb f7 54 04 3d ee 57 91 3d
       -0.32420793 -0.0056718406 0.03230759 0.070968494
0003d0 d8 ad f1 3d 8f 27 9b 3e a2 9e 4b 3e b8 db 18 bf
       0.11800736 0.30303618 0.19884732 -0.59710264
0003e0 9a 04 ef be f7 4a 5d 3e 74 5c e4 3e a6 32 36 bf
       -0.46683198 0.21610628 0.44601786 -0.71171033
0003f0 47 46 85 be 42 c5 92 3e be 9e 80 bf 75 a0 31 3f
       -0.2603018 0.2866612 -1.0048444 0.69385463

linear3.bias f4 [10]
000000 0f f7 66 3f 8a d9 e1 be f3 35 0b 3f 6e c7 6e 3f
       0.9022073 -0.44111282 0.54379195 0.93273056
000010 07 ea 5b 40 2f 35 ef bf 41 9a 38 40 dd d2 13 c0
       3.436159 -1.8688105 2.884415 -2.309745
000020 ae 03 b4 bf 0c cc 31 c0
       -1.4063623 -2.778079
